{"format": "layers-model", "generatedBy": "keras v2.14.0", "convertedBy": "TensorFlow.js Converter v4.19.0", "modelTopology": {"keras_version": "2.14.0", "backend": "tensorflow", "model_config": {"class_name": "Sequential", "config": {"name": "sequential_1", "layers": [{"class_name": "InputLayer", "config": {"batch_input_shape": [null, 20, 64, 64, 3], "dtype": "float32", "sparse": false, "ragged": false, "name": "time_distributed_3_input"}}, {"class_name": "TimeDistributed", "config": {"name": "time_distributed_3", "trainable": true, "dtype": "float32", "batch_input_shape": [null, 20, 64, 64, 3], "layer": {"module": "keras.layers", "class_name": "Conv2D", "config": {"name": "conv2d", "trainable": true, "dtype": "float32", "filters": 16, "kernel_size": [3, 3], "strides": [1, 1], "padding": "same", "data_format": "channels_last", "dilation_rate": [1, 1], "groups": 1, "activation": "relu", "use_bias": true, "kernel_initializer": {"module": "keras.initializers", "class_name": "GlorotUniform", "config": {"seed": null}, "registered_name": null}, "bias_initializer": {"module": "keras.initializers", "class_name": "Zeros", "config": {}, "registered_name": null}, "kernel_regularizer": null, "bias_regularizer": null, "activity_regularizer": null, "kernel_constraint": null, "bias_constraint": null}, "registered_name": null}}}, {"class_name": "TimeDistributed", "config": {"name": "time_distributed_4", "trainable": true, "dtype": "float32", "layer": {"module": "keras.layers", "class_name": "MaxPooling2D", "config": {"name": "max_pooling2d", "trainable": true, "dtype": "float32", "pool_size": [4, 4], "padding": "valid", "strides": [4, 4], "data_format": "channels_last"}, "registered_name": null, "build_config": {"input_shape": [null, 64, 64, 16]}}}}, {"class_name": "TimeDistributed", "config": {"name": "time_distributed_5", "trainable": true, "dtype": "float32", "layer": {"module": "keras.layers", "class_name": "Dropout", "config": {"name": "dropout_3", "trainable": true, "dtype": "float32", "rate": 0.25, "noise_shape": null, "seed": null}, "registered_name": null, "build_config": {"input_shape": [null, 16, 16, 16]}}}}, {"class_name": "TimeDistributed", "config": {"name": "time_distributed_6", "trainable": true, "dtype": "float32", "layer": {"module": "keras.layers", "class_name": "Conv2D", "config": {"name": "conv2d_1", "trainable": true, "dtype": "float32", "filters": 32, "kernel_size": [3, 3], "strides": [1, 1], "padding": "same", "data_format": "channels_last", "dilation_rate": [1, 1], "groups": 1, "activation": "relu", "use_bias": true, "kernel_initializer": {"module": "keras.initializers", "class_name": "GlorotUniform", "config": {"seed": null}, "registered_name": null}, "bias_initializer": {"module": "keras.initializers", "class_name": "Zeros", "config": {}, "registered_name": null}, "kernel_regularizer": null, "bias_regularizer": null, "activity_regularizer": null, "kernel_constraint": null, "bias_constraint": null}, "registered_name": null}}}, {"class_name": "TimeDistributed", "config": {"name": "time_distributed_7", "trainable": true, "dtype": "float32", "layer": {"module": "keras.layers", "class_name": "MaxPooling2D", "config": {"name": "max_pooling2d_1", "trainable": true, "dtype": "float32", "pool_size": [4, 4], "padding": "valid", "strides": [4, 4], "data_format": "channels_last"}, "registered_name": null, "build_config": {"input_shape": [null, 16, 16, 32]}}}}, {"class_name": "TimeDistributed", "config": {"name": "time_distributed_8", "trainable": true, "dtype": "float32", "layer": {"module": "keras.layers", "class_name": "Dropout", "config": {"name": "dropout_4", "trainable": true, "dtype": "float32", "rate": 0.25, "noise_shape": null, "seed": null}, "registered_name": null, "build_config": {"input_shape": [null, 4, 4, 32]}}}}, {"class_name": "TimeDistributed", "config": {"name": "time_distributed_9", "trainable": true, "dtype": "float32", "layer": {"module": "keras.layers", "class_name": "Conv2D", "config": {"name": "conv2d_2", "trainable": true, "dtype": "float32", "filters": 64, "kernel_size": [3, 3], "strides": [1, 1], "padding": "same", "data_format": "channels_last", "dilation_rate": [1, 1], "groups": 1, "activation": "relu", "use_bias": true, "kernel_initializer": {"module": "keras.initializers", "class_name": "GlorotUniform", "config": {"seed": null}, "registered_name": null}, "bias_initializer": {"module": "keras.initializers", "class_name": "Zeros", "config": {}, "registered_name": null}, "kernel_regularizer": null, "bias_regularizer": null, "activity_regularizer": null, "kernel_constraint": null, "bias_constraint": null}, "registered_name": null}}}, {"class_name": "TimeDistributed", "config": {"name": "time_distributed_10", "trainable": true, "dtype": "float32", "layer": {"module": "keras.layers", "class_name": "MaxPooling2D", "config": {"name": "max_pooling2d_2", "trainable": true, "dtype": "float32", "pool_size": [2, 2], "padding": "valid", "strides": [2, 2], "data_format": "channels_last"}, "registered_name": null, "build_config": {"input_shape": [null, 4, 4, 64]}}}}, {"class_name": "TimeDistributed", "config": {"name": "time_distributed_11", "trainable": true, "dtype": "float32", "layer": {"module": "keras.layers", "class_name": "Dropout", "config": {"name": "dropout_5", "trainable": true, "dtype": "float32", "rate": 0.25, "noise_shape": null, "seed": null}, "registered_name": null, "build_config": {"input_shape": [null, 2, 2, 64]}}}}, {"class_name": "TimeDistributed", "config": {"name": "time_distributed_12", "trainable": true, "dtype": "float32", "layer": {"module": "keras.layers", "class_name": "Conv2D", "config": {"name": "conv2d_3", "trainable": true, "dtype": "float32", "filters": 64, "kernel_size": [3, 3], "strides": [1, 1], "padding": "same", "data_format": "channels_last", "dilation_rate": [1, 1], "groups": 1, "activation": "relu", "use_bias": true, "kernel_initializer": {"module": "keras.initializers", "class_name": "GlorotUniform", "config": {"seed": null}, "registered_name": null}, "bias_initializer": {"module": "keras.initializers", "class_name": "Zeros", "config": {}, "registered_name": null}, "kernel_regularizer": null, "bias_regularizer": null, "activity_regularizer": null, "kernel_constraint": null, "bias_constraint": null}, "registered_name": null}}}, {"class_name": "TimeDistributed", "config": {"name": "time_distributed_13", "trainable": true, "dtype": "float32", "layer": {"module": "keras.layers", "class_name": "MaxPooling2D", "config": {"name": "max_pooling2d_3", "trainable": true, "dtype": "float32", "pool_size": [2, 2], "padding": "valid", "strides": [2, 2], "data_format": "channels_last"}, "registered_name": null, "build_config": {"input_shape": [null, 2, 2, 64]}}}}, {"class_name": "TimeDistributed", "config": {"name": "time_distributed_14", "trainable": true, "dtype": "float32", "layer": {"module": "keras.layers", "class_name": "Flatten", "config": {"name": "flatten_1", "trainable": true, "dtype": "float32", "data_format": "channels_last"}, "registered_name": null, "build_config": {"input_shape": [null, 1, 1, 64]}}}}, {"class_name": "LSTM", "config": {"name": "lstm", "trainable": true, "dtype": "float32", "return_sequences": false, "return_state": false, "go_backwards": false, "stateful": false, "unroll": false, "time_major": false, "units": 32, "activation": "tanh", "recurrent_activation": "sigmoid", "use_bias": true, "kernel_initializer": {"module": "keras.initializers", "class_name": "GlorotUniform", "config": {"seed": null}, "registered_name": null}, "recurrent_initializer": {"module": "keras.initializers", "class_name": "Orthogonal", "config": {"gain": 1.0, "seed": null}, "registered_name": null}, "bias_initializer": {"module": "keras.initializers", "class_name": "Zeros", "config": {}, "registered_name": null}, "unit_forget_bias": true, "kernel_regularizer": null, "recurrent_regularizer": null, "bias_regularizer": null, "activity_regularizer": null, "kernel_constraint": null, "recurrent_constraint": null, "bias_constraint": null, "dropout": 0.0, "recurrent_dropout": 0.0, "implementation": 2}}, {"class_name": "Dense", "config": {"name": "dense_1", "trainable": true, "dtype": "float32", "units": 6, "activation": "softmax", "use_bias": true, "kernel_initializer": {"module": "keras.initializers", "class_name": "GlorotUniform", "config": {"seed": null}, "registered_name": null}, "bias_initializer": {"module": "keras.initializers", "class_name": "Zeros", "config": {}, "registered_name": null}, "kernel_regularizer": null, "bias_regularizer": null, "activity_regularizer": null, "kernel_constraint": null, "bias_constraint": null}}]}}, "training_config": {"loss": "categorical_crossentropy", "metrics": [[{"class_name": "MeanMetricWrapper", "config": {"name": "accuracy", "dtype": "float32", "fn": "categorical_accuracy"}}]], "weighted_metrics": null, "loss_weights": null, "optimizer_config": {"class_name": "Custom>Adam", "config": {"name": "Adam", "weight_decay": null, "clipnorm": null, "global_clipnorm": null, "clipvalue": null, "use_ema": false, "ema_momentum": 0.99, "ema_overwrite_frequency": null, "jit_compile": true, "is_legacy_optimizer": false, "learning_rate": 0.0010000000474974513, "beta_1": 0.9, "beta_2": 0.999, "epsilon": 1e-07, "amsgrad": false}}}}, "weightsManifest": [{"paths": ["group1-shard1of1.bin"], "weights": [{"name": "dense_1/kernel", "shape": [32, 6], "dtype": "float32"}, {"name": "dense_1/bias", "shape": [6], "dtype": "float32"}, {"name": "lstm/lstm_cell/kernel", "shape": [64, 128], "dtype": "float32"}, {"name": "lstm/lstm_cell/recurrent_kernel", "shape": [32, 128], "dtype": "float32"}, {"name": "lstm/lstm_cell/bias", "shape": [128], "dtype": "float32"}, {"name": "time_distributed_12/kernel", "shape": [3, 3, 64, 64], "dtype": "float32"}, {"name": "time_distributed_12/bias", "shape": [64], "dtype": "float32"}, {"name": "time_distributed_3/kernel", "shape": [3, 3, 3, 16], "dtype": "float32"}, {"name": "time_distributed_3/bias", "shape": [16], "dtype": "float32"}, {"name": "time_distributed_6/kernel", "shape": [3, 3, 16, 32], "dtype": "float32"}, {"name": "time_distributed_6/bias", "shape": [32], "dtype": "float32"}, {"name": "time_distributed_9/kernel", "shape": [3, 3, 32, 64], "dtype": "float32"}, {"name": "time_distributed_9/bias", "shape": [64], "dtype": "float32"}]}]}